android/Sorting_Demo/app/src/main/assets/models_on_device.tflite (tflite, 598288 bytes, 53 tensors)

mnas_v4_a_035_1/feature_network/cell_11/op_0/depthwise_0/weights_quant/FakeQuantWithMinMaxVars u1 [1, 3, 3, 192] scale=0.6942717 zero_point=126
0	0x7e	0.0
1	0x7d	-0.6942717
2	0x7d	-0.6942717
3	0x7e	0.0
4	0x7e	0.0
5	0x7e	0.0
6	0x7e	0.0
7	0x7f	0.6942717
8	0x7e	0.0
9	0x7e	0.0
10	0x7e	0.0
11	0x7f	0.6942717
12	0x7e	0.0
13	0x7e	0.0
14	0x7f	0.6942717
15	0x7e	0.0
16	0x7d	-0.6942717
17	0x8d	10.414075
18	0x82	2.7770867
19	0x7d	-0.6942717
20	0x7f	0.6942717
21	0x7e	0.0
22	0x7e	0.0
23	0x7f	0.6942717
24	0x7e	0.0
25	0x7e	0.0
26	0x7f	0.6942717
27	0x7e	0.0
28	0x7e	0.0
29	0x7d	-0.6942717
30	0x7e	0.0
31	0x7e	0.0
32	0x7e	0.0
33	0x7d	-0.6942717
34	0x7d	-0.6942717
35	0x7e	0.0
36	0x7c	-1.3885434
37	0x7e	0.0
38	0x80	1.3885434
39	0x7e	0.0
40	0x7f	0.6942717
41	0x7e	0.0
42	0x7e	0.0
43	0x7f	0.6942717
44	0x7e	0.0
45	0x7d	-0.6942717
46	0x7e	0.0
47	0x7e	0.0
48	0x7f	0.6942717
49	0x7e	0.0
50	0x7d	-0.6942717
51	0x7c	-1.3885434
52	0x7d	-0.6942717
53	0x7e	0.0
54	0x7e	0.0
55	0x7f	0.6942717
56	0x7e	0.0
57	0x7f	0.6942717
58	0x7e	0.0
59	0x7e	0.0
60	0x7f	0.6942717
61	0x7d	-0.6942717
62	0x7d	-0.6942717
63	0x7f	0.6942717
64	0x7e	0.0
65	0x7f	0.6942717
66	0x7d	-0.6942717
67	0x7c	-1.3885434
68	0x7d	-0.6942717
69	0x7f	0.6942717
70	0x7f	0.6942717
71	0x7e	0.0
72	0x7e	0.0
73	0x7e	0.0
74	0x7e	0.0
75	0x7e	0.0
76	0x7e	0.0
77	0x7f	0.6942717
78	0x7e	0.0
79	0x7c	-1.3885434
80	0x7e	0.0
81	0x81	2.0828152
82	0x81	2.0828152
83	0x7d	-0.6942717
84	0x7e	0.0
85	0x5d	-22.910965
86	0x7e	0.0
87	0x7f	0.6942717
88	0x7e	0.0
89	0x7e	0.0
90	0x7f	0.6942717
91	0x7c	-1.3885434
92	0x7d	-0.6942717
93	0x81	2.0828152
94	0x7f	0.6942717
95	0x7e	0.0
96	0x7d	-0.6942717
97	0x7e	0.0
98	0x7f	0.6942717
99	0x7f	0.6942717
100	0x7e	0.0
101	0x7e	0.0
102	0x7e	0.0
103	0x7f	0.6942717
104	0x7f	0.6942717
105	0x7e	0.0
106	0x7e	0.0
107	0x7e	0.0
108	0x7d	-0.6942717
109	0x7f	0.6942717
110	0x7f	0.6942717
111	0x7e	0.0
112	0x80	1.3885434
113	0x7e	0.0
114	0x7d	-0.6942717
115	0x7e	0.0
116	0x7c	-1.3885434
117	0x7d	-0.6942717
118	0x7d	-0.6942717
119	0x7c	-1.3885434
120	0x7d	-0.6942717
121	0x7d	-0.6942717
122	0x7f	0.6942717
123	0x7d	-0.6942717
124	0x7e	0.0
125	0x7e	0.0
126	0x7d	-0.6942717
127	0x7e	0.0
128	0x7f	0.6942717
129	0x7e	0.0
130	0x7f	0.6942717
131	0x7e	0.0
132	0x7f	0.6942717
133	0x80	1.3885434
134	0x7e	0.0
135	0x7f	0.6942717
136	0x7e	0.0
137	0x7e	0.0
138	0x80	1.3885434
139	0x7d	-0.6942717
140	0x7d	-0.6942717
141	0x80	1.3885434
142	0x7f	0.6942717
143	0x7e	0.0
144	0x7f	0.6942717
145	0x7f	0.6942717
146	0x7d	-0.6942717
147	0x7c	-1.3885434
148	0x7d	-0.6942717
149	0x5e	-22.216694
150	0x99	18.745335
151	0x7f	0.6942717
152	0x7d	-0.6942717
153	0x7e	0.0
154	0x7e	0.0
155	0x7c	-1.3885434
156	0x7f	0.6942717
157	0x7f	0.6942717
158	0x7e	0.0
159	0x7d	-0.6942717
160	0x7f	0.6942717
161	0x7e	0.0
162	0x7e	0.0
163	0x7e	0.0
164	0x7e	0.0
165	0x70	-9.719804
166	0x7d	-0.6942717
167	0x7e	0.0
168	0x7e	0.0
169	0x7e	0.0
170	0x7f	0.6942717
171	0x81	2.0828152
172	0x7e	0.0
173	0x7e	0.0
174	0x7e	0.0
175	0x7d	-0.6942717
176	0x7e	0.0
177	0x7e	0.0
178	0x7e	0.0
179	0x83	3.4713583
180	0x7d	-0.6942717
181	0x7e	0.0
182	0x7e	0.0
183	0x7e	0.0
184	0x7e	0.0
185	0x7e	0.0
186	0x7e	0.0
187	0x7f	0.6942717
188	0x81	2.0828152
189	0x7f	0.6942717
190	0x7f	0.6942717
191	0x7e	0.0
192	0x7d	-0.6942717
193	0x7f	0.6942717
194	0x7f	0.6942717
195	0x7d	-0.6942717
196	0x7e	0.0
197	0x7f	0.6942717
198	0x7e	0.0
199	0x7c	-1.3885434
200	0x7f	0.6942717
201	0x7d	-0.6942717
202	0x7f	0.6942717
203	0x82	2.7770867
204	0x7e	0.0
205	0x7c	-1.3885434
206	0x80	1.3885434
207	0x7e	0.0
208	0x7e	0.0
209	0xef	78.4527
210	0x90	12.49689
211	0x7e	0.0
212	0x7c	-1.3885434
213	0x7e	0.0
214	0x80	1.3885434
215	0x7f	0.6942717
216	0x7e	0.0
217	0x7d	-0.6942717
218	0x81	2.0828152
219	0x81	2.0828152
220	0x7d	-0.6942717
221	0x7d	-0.6942717
222	0x81	2.0828152
223	0x82	2.7770867
224	0x7e	0.0
225	0x7c	-1.3885434
226	0x82	2.7770867
227	0x7d	-0.6942717
228	0x7a	-2.7770867
229	0x80	1.3885434
230	0x7e	0.0
231	0x7e	0.0
232	0x7f	0.6942717
233	0x80	1.3885434
234	0x7d	-0.6942717
235	0x7f	0.6942717
236	0x7d	-0.6942717
237	0x7f	0.6942717
238	0x7f	0.6942717
239	0x7e	0.0
240	0x81	2.0828152
241	0x7e	0.0
242	0x7d	-0.6942717
243	0x7c	-1.3885434
244	0x80	1.3885434
245	0x7e	0.0
246	0x7f	0.6942717
247	0x7d	-0.6942717
248	0x7f	0.6942717
249	0x7f	0.6942717
250	0x7d	-0.6942717
251	0x7e	0.0
252	0x81	2.0828152
253	0x7d	-0.6942717
254	0x7d	-0.6942717
255	0x81	2.0828152

mnas_v4_a_035_1/feature_network/cell_11/op_0/expand_0/weights_quant/FakeQuantWithMinMaxVars u1 [192, 1, 1, 32] scale=0.0008700457 zero_point=133
0	0x81	-0.0034801827
1	0x9e	0.021751141
2	0x76	-0.013050686
3	0x5d	-0.034801826
4	0x7a	-0.009570503
5	0x5e	-0.03393178
6	0x66	-0.026971417
7	0x72	-0.016530868
8	0x80	-0.0043502282
9	0x70	-0.01827096
10	0x75	-0.013920731
11	0xa8	0.0304516
12	0x94	0.013050686
13	0xa4	0.026971417
14	0xc4	0.05481288
15	0x9c	0.02001105
16	0x65	-0.027841462
17	0x7b	-0.0087004565
18	0x9e	0.021751141
19	0xae	0.03567187
20	0xa3	0.026101371
21	0x69	-0.024361279
22	0x6d	-0.020881096
23	0x5b	-0.03654192
24	0x62	-0.0304516
25	0x88	0.002610137
26	0x4c	-0.049592603
27	0x49	-0.052202743
28	0x80	-0.0043502282
29	0xab	0.033061735
30	0x7e	-0.0060903197
31	0x81	-0.0034801827
32	0x9c	0.02001105
33	0x82	-0.002610137
34	0x89	0.0034801827
35	0xa9	0.031321645
36	0xb6	0.042632237
37	0x5e	-0.03393178
38	0x6f	-0.019141005
39	0x8e	0.007830411
40	0xac	0.03393178
41	0x65	-0.027841462
42	0x9a	0.01827096
43	0x80	-0.0043502282
44	0x7f	-0.005220274
45	0x7a	-0.009570503
46	0x64	-0.028711507
47	0x89	0.0034801827
48	0x7e	-0.0060903197
49	0x6c	-0.021751141
50	0xa1	0.024361279
51	0x99	0.017400913
52	0x70	-0.01827096
53	0x85	0.0
54	0x9d	0.020881096
55	0x89	0.0034801827
56	0x87	0.0017400914
57	0x70	-0.01827096
58	0xb4	0.040892147
59	0x8a	0.0043502282
60	0x60	-0.03219169
61	0x76	-0.013050686
62	0x8e	0.007830411
63	0x4c	-0.049592603
64	0x63	-0.029581552
65	0x68	-0.025231324
66	0x7e	-0.0060903197
67	0x7b	-0.0087004565
68	0x77	-0.012180639
69	0x6c	-0.021751141
70	0x8c	0.0060903197
71	0x6b	-0.022621188
72	0x63	-0.029581552
73	0x7a	-0.009570503
74	0x86	0.0008700457
75	0xbf	0.05046265
76	0xa3	0.026101371
77	0x7e	-0.0060903197
78	0xca	0.060033154
79	0x8d	0.0069603655
80	0x7f	-0.005220274
81	0x8f	0.0087004565
82	0x86	0.0008700457
83	0x9c	0.02001105
84	0x90	0.009570503
85	0x84	-0.0008700457
86	0x87	0.0017400914
87	0x5c	-0.03567187
88	0x84	-0.0008700457
89	0x63	-0.029581552
90	0x90	0.009570503
91	0x7d	-0.0069603655
92	0x8e	0.007830411
93	0xa0	0.023491234
94	0x70	-0.01827096
95	0x96	0.014790776
96	0x9a	0.01827096
97	0x55	-0.04176219
98	0x96	0.014790776
99	0x66	-0.026971417
100	0x8f	0.0087004565
101	0x4a	-0.051332694
102	0xab	0.033061735
103	0x80	-0.0043502282
104	0x7f	-0.005220274
105	0x4a	-0.051332694
106	0x8e	0.007830411
107	0x97	0.015660822
108	0xbc	0.047852512
109	0xa5	0.027841462
110	0xa6	0.028711507
111	0x72	-0.016530868
112	0x85	0.0
113	0x7c	-0.007830411
114	0xa3	0.026101371
115	0x88	0.002610137
116	0xa5	0.027841462
117	0x93	0.012180639
118	0x76	-0.013050686
119	0x85	0.0
120	0x80	-0.0043502282
121	0x8c	0.0060903197
122	0xb5	0.04176219
123	0xb1	0.03828201
124	0x5a	-0.037411965
125	0x95	0.013920731
126	0xc3	0.053942833
127	0x7c	-0.007830411
128	0x7c	-0.007830411
129	0x88	0.002610137
130	0x60	-0.03219169
131	0xa3	0.026101371
132	0xa3	0.026101371
133	0x95	0.013920731
134	0x77	-0.012180639
135	0x5f	-0.033061735
136	0xaa	0.03219169
137	0x8b	0.005220274
138	0x71	-0.017400913
139	0xa8	0.0304516
140	0x6f	-0.019141005
141	0x82	-0.002610137
142	0x99	0.017400913
143	0x64	-0.028711507
144	0x90	0.009570503
145	0x89	0.0034801827
146	0x6a	-0.023491234
147	0xa4	0.026971417
148	0x88	0.002610137
149	0xa1	0.024361279
150	0x7d	-0.0069603655
151	0x7f	-0.005220274
152	0x8b	0.005220274
153	0x76	-0.013050686
154	0x8d	0.0069603655
155	0x8a	0.0043502282
156	0x91	0.010440548
157	0x78	-0.011310594
158	0xaa	0.03219169
159	0x7d	-0.0069603655
160	0x85	0.0
161	0x71	-0.017400913
162	0x7a	-0.009570503
163	0x64	-0.028711507
164	0x8b	0.005220274
165	0x89	0.0034801827
166	0x84	-0.0008700457
167	0x68	-0.025231324
168	0x71	-0.017400913
169	0x4f	-0.046982467
170	0xa0	0.023491234
171	0x9e	0.021751141
172	0x4f	-0.046982467
173	0x92	0.011310594
174	0x98	0.016530868
175	0x65	-0.027841462
176	0x9b	0.019141005
177	0x9b	0.019141005
178	0x5a	-0.037411965
179	0xa0	0.023491234
180	0x84	-0.0008700457
181	0x94	0.013050686
182	0x96	0.014790776
183	0x8a	0.0043502282
184	0x81	-0.0034801827
185	0x68	-0.025231324
186	0xbb	0.046982467
187	0x7b	-0.0087004565
188	0x8b	0.005220274
189	0x92	0.011310594
190	0x84	-0.0008700457
191	0x89	0.0034801827
192	0xc0	0.051332694
193	0x99	0.017400913
194	0xf6	0.098315164
195	0x75	-0.013920731
196	0xa1	0.024361279
197	0x61	-0.031321645
198	0x66	-0.026971417
199	0x84	-0.0008700457
200	0x86	0.0008700457
201	0xe7	0.085264474
202	0x9c	0.02001105
203	0x40	-0.060033154
204	0xaa	0.03219169
205	0xa6	0.028711507
206	0x9a	0.01827096
207	0x9a	0.01827096
208	0xa7	0.029581552
209	0x94	0.013050686
210	0x4c	-0.049592603
211	0xbf	0.05046265
212	0x75	-0.013920731
213	0xae	0.03567187
214	0x78	-0.011310594
215	0x47	-0.053942833
216	0xcb	0.0609032
217	0x84	-0.0008700457
218	0x9d	0.020881096
219	0xdb	0.07482393
220	0x60	-0.03219169
221	0x5e	-0.03393178
222	0xa1	0.024361279
223	0xae	0.03567187
224	0x42	-0.05829306
225	0x79	-0.010440548
226	0x7e	-0.0060903197
227	0x9a	0.01827096
228	0xcd	0.06264329
229	0xa4	0.026971417
230	0x8d	0.0069603655
231	0x7b	-0.0087004565
232	0x7b	-0.0087004565
233	0x85	0.0
234	0x65	-0.027841462
235	0x75	-0.013920731
236	0x8d	0.0069603655
237	0x9d	0.020881096
238	0x6e	-0.02001105
239	0xaa	0.03219169
240	0x79	-0.010440548
241	0x5c	-0.03567187
242	0x7a	-0.009570503
243	0x90	0.009570503
244	0xba	0.046112422
245	0x64	-0.028711507
246	0x6e	-0.02001105
247	0x6e	-0.02001105
248	0x71	-0.017400913
249	0xaa	0.03219169
250	0x7c	-0.007830411
251	0x97	0.015660822
252	0x40	-0.060033154
253	0x64	-0.028711507
254	0x69	-0.024361279
255	0x80	-0.0043502282

mnas_v4_a_035_1/feature_network/cell_11/op_0/project_0/weights_quant/FakeQuantWithMinMaxVars u1 [32, 1, 1, 192] scale=0.0065196278 zero_point=138
0	0x89	-0.0065196278
1	0x80	-0.065196276
2	0x71	-0.16299069
3	0x86	-0.026078511
4	0x9e	0.13039255
5	0x9e	0.13039255
6	0x90	0.03911777
7	0x66	-0.2347066
8	0xa1	0.14995144
9	0x9c	0.1173533
10	0xa1	0.14995144
11	0x80	-0.065196276
12	0x7a	-0.104314044
13	0x90	0.03911777
14	0x94	0.065196276
15	0x99	0.09779441
16	0x7f	-0.071715906
17	0x78	-0.1173533
18	0xac	0.22166735
19	0x9b	0.110833675
20	0xa2	0.15647107
21	0x6c	-0.19558883
22	0xa5	0.17602995
23	0x7c	-0.09127479
24	0x9d	0.12387293
25	0x85	-0.032598138
26	0x88	-0.0130392555
27	0xbb	0.31946176
28	0x80	-0.065196276
29	0x93	0.05867665
30	0x62	-0.2607851
31	0x8a	0.0
32	0x7d	-0.08475516
33	0xbd	0.33250102
34	0xa7	0.18906921
35	0x74	-0.14343181
36	0x65	-0.24122623
37	0x8c	0.0130392555
38	0x99	0.09779441
39	0x98	0.09127479
40	0x8e	0.026078511
41	0xbb	0.31946176
42	0xa4	0.16951032
43	0x9d	0.12387293
44	0x84	-0.03911777
45	0xa2	0.15647107
46	0x8f	0.032598138
47	0x8a	0.0
48	0x88	-0.0130392555
49	0x75	-0.13691218
50	0x8d	0.019558884
51	0x9b	0.110833675
52	0x7a	-0.104314044
53	0x9f	0.13691218
54	0x9e	0.13039255
55	0x73	-0.14995144
56	0xb1	0.2542655
57	0x80	-0.065196276
58	0x89	-0.0065196278
59	0x8c	0.0130392555
60	0xc3	0.37161878
61	0x5c	-0.2999029
62	0xb1	0.2542655
63	0xad	0.22818696
64	0x92	0.052157022
65	0xa2	0.15647107
66	0x79	-0.110833675
67	0x8a	0.0
68	0x96	0.07823554
69	0xa1	0.14995144
70	0x70	-0.16951032
71	0xa0	0.14343181
72	0x80	-0.065196276
73	0x5b	-0.3064225
74	0x8b	0.0065196278
75	0x94	0.065196276
76	0x85	-0.032598138
77	0x92	0.052157022
78	0x6f	-0.17602995
79	0x8c	0.0130392555
80	0x7d	-0.08475516
81	0x94	0.065196276
82	0x4a	-0.41725618
83	0x69	-0.21514772
84	0x86	-0.026078511
85	0x8a	0.0
86	0x8d	0.019558884
87	0x45	-0.4498543
88	0xad	0.22818696
89	0x93	0.05867665
90	0x8d	0.019558884
91	0x63	-0.2542655
92	0x7f	-0.071715906
93	0x96	0.07823554
94	0x65	-0.24122623
95	0x49	-0.4237758
96	0x98	0.09127479
97	0x72	-0.15647107
98	0x8c	0.0130392555
99	0x85	-0.032598138
100	0xba	0.31294215
101	0x7e	-0.07823554
102	0xb6	0.28686363
103	0x90	0.03911777
104	0x88	-0.0130392555
105	0xa9	0.20210846
106	0x95	0.071715906
107	0xa8	0.19558883
108	0x7c	-0.09127479
109	0x80	-0.065196276
110	0x8a	0.0
111	0x8c	0.0130392555
112	0x66	-0.2347066
113	0x88	-0.0130392555
114	0x8a	0.0
115	0x87	-0.019558884
116	0x6a	-0.20862809
117	0x87	-0.019558884
118	0x8f	0.032598138
119	0x9d	0.12387293
120	0x7e	-0.07823554
121	0x8c	0.0130392555
122	0x6b	-0.20210846
123	0x77	-0.12387293
124	0x6c	-0.19558883
125	0x92	0.052157022
126	0xa0	0.14343181
127	0x7d	-0.08475516
128	0x91	0.045637395
129	0xa4	0.16951032
130	0x76	-0.13039255
131	0x6a	-0.20862809
132	0x36	-0.5476487
133	0x9c	0.1173533
134	0x9e	0.13039255
135	0x80	-0.065196276
136	0x94	0.065196276
137	0x99	0.09779441
138	0x8b	0.0065196278
139	0x67	-0.22818696
140	0x7c	-0.09127479
141	0x92	0.052157022
142	0x52	-0.36509916
143	0x89	-0.0065196278
144	0x9a	0.104314044
145	0x8e	0.026078511
146	0x80	-0.065196276
147	0x6c	-0.19558883
148	0x92	0.052157022
149	0x7c	-0.09127479
150	0x7d	-0.08475516
151	0x59	-0.31946176
152	0x9e	0.13039255
153	0x8a	0.0
154	0x9d	0.12387293
155	0x73	-0.14995144
156	0x82	-0.052157022
157	0x9e	0.13039255
158	0x9f	0.13691218
159	0x86	-0.026078511
160	0x62	-0.2607851
161	0x86	-0.026078511
162	0x99	0.09779441
163	0x7d	-0.08475516
164	0x9b	0.110833675
165	0x8b	0.0065196278
166	0x6a	-0.20862809
167	0x7f	-0.071715906
168	0xba	0.31294215
169	0x8e	0.026078511
170	0x8f	0.032598138
171	0x91	0.045637395
172	0x9f	0.13691218
173	0xbb	0.31946176
174	0x8e	0.026078511
175	0x64	-0.24774586
176	0x89	-0.0065196278
177	0x91	0.045637395
178	0x91	0.045637395
179	0x97	0.08475516
180	0x73	-0.14995144
181	0xa0	0.14343181
182	0x89	-0.0065196278
183	0x96	0.07823554
184	0x88	-0.0130392555
185	0x92	0.052157022
186	0x8f	0.032598138
187	0xac	0.22166735
188	0x8a	0.0
189	0x8b	0.0065196278
190	0x9f	0.13691218
191	0x55	-0.3455403
192	0xa4	0.16951032
193	0x7b	-0.09779441
194	0x8e	0.026078511
195	0x91	0.045637395
196	0x81	-0.05867665
197	0x99	0.09779441
198	0x95	0.071715906
199	0x66	-0.2347066
200	0x9f	0.13691218
201	0xa4	0.16951032
202	0x79	-0.110833675
203	0x77	-0.12387293
204	0x85	-0.032598138
205	0x79	-0.110833675
206	0x8e	0.026078511
207	0x9f	0.13691218
208	0x8c	0.0130392555
209	0x84	-0.03911777
210	0xa1	0.14995144
211	0x8c	0.0130392555
212	0x6c	-0.19558883
213	0x77	-0.12387293
214	0x5a	-0.31294215
215	0x72	-0.15647107
216	0x9a	0.104314044
217	0x84	-0.03911777
218	0x8f	0.032598138
219	0x91	0.045637395
220	0x90	0.03911777
221	0x85	-0.032598138
222	0x86	-0.026078511
223	0x7c	-0.09127479
224	0x70	-0.16951032
225	0x93	0.05867665
226	0x9d	0.12387293
227	0x50	-0.37813842
228	0x83	-0.045637395
229	0x70	-0.16951032
230	0x7e	-0.07823554
231	0x99	0.09779441
232	0x91	0.045637395
233	0x7c	-0.09127479
234	0x9c	0.1173533
235	0x8f	0.032598138
236	0x92	0.052157022
237	0x95	0.071715906
238	0x8c	0.0130392555
239	0x8e	0.026078511
240	0x7f	-0.071715906
241	0x8a	0.0
242	0xa9	0.20210846
243	0x8a	0.0
244	0x9c	0.1173533
245	0x96	0.07823554
246	0x90	0.03911777
247	0x98	0.09127479
248	0x9a	0.104314044
249	0x88	-0.0130392555
250	0x8f	0.032598138
251	0x5b	-0.3064225
252	0x88	-0.0130392555
253	0x79	-0.110833675
254	0x81	-0.05867665
255	0x87	-0.019558884

mnas_v4_a_035_1/feature_network/cell_13/op_0/depthwise_0/weights_quant/FakeQuantWithMinMaxVars u1 [1, 5, 5, 384] scale=0.9650486 zero_point=150
0	0x96	0.0
1	0x96	0.0
2	0x96	0.0
3	0x96	0.0
4	0x96	0.0
5	0x96	0.0
6	0x96	0.0
7	0x96	0.0
8	0x96	0.0
9	0x96	0.0
10	0x96	0.0
11	0x96	0.0
12	0x96	0.0
13	0x96	0.0
14	0x96	0.0
15	0x96	0.0
16	0x96	0.0
17	0x96	0.0
18	0x96	0.0
19	0x96	0.0
20	0x96	0.0
21	0x96	0.0
22	0x96	0.0
23	0x96	0.0
24	0x96	0.0
25	0x96	0.0
26	0x96	0.0
27	0x96	0.0
28	0x96	0.0
29	0x96	0.0
30	0x96	0.0
31	0x96	0.0
32	0x96	0.0
33	0x97	0.9650486
34	0x96	0.0
35	0x96	0.0
36	0x96	0.0
37	0x96	0.0
38	0x96	0.0
39	0x96	0.0
40	0x96	0.0
41	0x96	0.0
42	0x96	0.0
43	0x96	0.0
44	0x96	0.0
45	0x96	0.0
46	0x96	0.0
47	0x96	0.0
48	0x96	0.0
49	0x96	0.0
50	0x96	0.0
51	0x96	0.0
52	0x97	0.9650486
53	0x96	0.0
54	0x96	0.0
55	0x96	0.0
56	0x96	0.0
57	0x96	0.0
58	0x96	0.0
59	0x96	0.0
60	0x96	0.0
61	0x96	0.0
62	0x96	0.0
63	0x96	0.0
64	0x96	0.0
65	0x96	0.0
66	0x96	0.0
67	0x96	0.0
68	0x96	0.0
69	0x97	0.9650486
70	0x96	0.0
71	0x96	0.0
72	0x96	0.0
73	0x96	0.0
74	0x96	0.0
75	0x96	0.0
76	0x96	0.0
77	0x96	0.0
78	0x96	0.0
79	0x96	0.0
80	0x96	0.0
81	0x96	0.0
82	0x96	0.0
83	0x96	0.0
84	0x96	0.0
85	0x96	0.0
86	0x96	0.0
87	0x96	0.0
88	0x96	0.0
89	0x96	0.0
90	0x96	0.0
91	0x96	0.0
92	0x96	0.0
93	0x96	0.0
94	0x96	0.0
95	0x96	0.0
96	0x96	0.0
97	0x96	0.0
98	0x96	0.0
99	0x96	0.0
100	0x96	0.0
101	0x96	0.0
102	0x96	0.0
103	0x96	0.0
104	0x96	0.0
105	0x96	0.0
106	0x96	0.0
107	0x96	0.0
108	0x96	0.0
109	0x96	0.0
110	0x96	0.0
111	0x96	0.0
112	0x96	0.0
113	0x96	0.0
114	0x96	0.0
115	0x96	0.0
116	0x96	0.0
117	0x95	-0.9650486
118	0x96	0.0
119	0x96	0.0
120	0x96	0.0
121	0x96	0.0
122	0x96	0.0
123	0x96	0.0
124	0x96	0.0
125	0x9e	7.720389
126	0x96	0.0
127	0x96	0.0
128	0x96	0.0
129	0x96	0.0
130	0x96	0.0
131	0x96	0.0
132	0x96	0.0
133	0x96	0.0
134	0x96	0.0
135	0x96	0.0
136	0x96	0.0
137	0x95	-0.9650486
138	0x96	0.0
139	0x95	-0.9650486
140	0x96	0.0
141	0x96	0.0
142	0x96	0.0
143	0x96	0.0
144	0x95	-0.9650486
145	0x96	0.0
146	0x96	0.0
147	0x96	0.0
148	0x96	0.0
149	0x96	0.0
150	0x95	-0.9650486
151	0x96	0.0
152	0x96	0.0
153	0x96	0.0
154	0x95	-0.9650486
155	0x96	0.0
156	0x96	0.0
157	0x96	0.0
158	0x96	0.0
159	0x96	0.0
160	0x96	0.0
161	0x96	0.0
162	0x96	0.0
163	0x96	0.0
164	0x96	0.0
165	0x96	0.0
166	0x96	0.0
167	0x96	0.0
168	0x96	0.0
169	0x96	0.0
170	0x96	0.0
171	0x96	0.0
172	0x95	-0.9650486
173	0x96	0.0
174	0x96	0.0
175	0x96	0.0
176	0x96	0.0
177	0x96	0.0
178	0x96	0.0
179	0x96	0.0
180	0x96	0.0
181	0x96	0.0
182	0x97	0.9650486
183	0x96	0.0
184	0x96	0.0
185	0x96	0.0
186	0x96	0.0
187	0x96	0.0
188	0x96	0.0
189	0x96	0.0
190	0x96	0.0
191	0x96	0.0
192	0x96	0.0
193	0x96	0.0
194	0x96	0.0
195	0x96	0.0
196	0x96	0.0
197	0x96	0.0
198	0x96	0.0
199	0x96	0.0
200	0x96	0.0
201	0x96	0.0
202	0x96	0.0
203	0x96	0.0
204	0x96	0.0
205	0x96	0.0
206	0x96	0.0
207	0x96	0.0
208	0x96	0.0
209	0x96	0.0
210	0x96	0.0
211	0x96	0.0
212	0x96	0.0
213	0x96	0.0
214	0x96	0.0
215	0x96	0.0
216	0x96	0.0
217	0x96	0.0
218	0x96	0.0
219	0x96	0.0
220	0x96	0.0
221	0x96	0.0
222	0x96	0.0
223	0x96	0.0
224	0x96	0.0
225	0x96	0.0
226	0x96	0.0
227	0x96	0.0
228	0x96	0.0
229	0x96	0.0
230	0x96	0.0
231	0x96	0.0
232	0x96	0.0
233	0x97	0.9650486
234	0x96	0.0
235	0x96	0.0
236	0x96	0.0
237	0x96	0.0
238	0x96	0.0
239	0x96	0.0
240	0x96	0.0
241	0x96	0.0
242	0x96	0.0
243	0x96	0.0
244	0x96	0.0
245	0x96	0.0
246	0x96	0.0
247	0x97	0.9650486
248	0x96	0.0
249	0x96	0.0
250	0x95	-0.9650486
251	0x96	0.0
252	0x96	0.0
253	0x96	0.0
254	0x96	0.0
255	0x96	0.0

mnas_v4_a_035_1/feature_network/cell_13/op_0/expand_0/weights_quant/FakeQuantWithMinMaxVars u1 [384, 1, 1, 64] scale=0.00090328266 zero_point=117
0	0x80	0.009936109
1	0x94	0.028001763
2	0x86	0.015355805
3	0x5b	-0.02348535
4	0x94	0.028001763
5	0x61	-0.018065654
6	0x1b	-0.08129544
7	0xa5	0.043357566
8	0x80	0.009936109
9	0xb4	0.05690681
10	0x33	-0.059616655
11	0x41	-0.0469707
12	0x73	-0.0018065653
13	0x3b	-0.052390393
14	0x47	-0.041551
15	0x89	0.018065654
16	0x53	-0.03071161
17	0x98	0.031614892
18	0x16	-0.08581185
19	0x99	0.032518174
20	0x49	-0.039744437
21	0x42	-0.046067417
22	0x7f	0.009032827
23	0x82	0.011742675
24	0x9b	0.034324743
25	0x6c	-0.008129544
26	0x5b	-0.02348535
27	0x9b	0.034324743
28	0x6e	-0.0063229785
29	0x48	-0.04064772
30	0x96	0.029808328
31	0x3d	-0.05058383
32	0x88	0.017162371
33	0x5c	-0.022582067
34	0x65	-0.014452523
35	0x3c	-0.05148711
36	0x5f	-0.019872218
37	0x66	-0.01354924
38	0xb3	0.056003526
39	0x80	0.009936109
40	0x93	0.02709848
41	0x7d	0.0072262613
42	0x95	0.028905045
43	0x8d	0.021678783
44	0x67	-0.012645957
45	0x7c	0.0063229785
46	0x4e	-0.035228025
47	0xa9	0.0469707
48	0x75	0.0
49	0x58	-0.026195196
50	0x96	0.029808328
51	0x5e	-0.0207755
52	0x9b	0.034324743
53	0x7c	0.0063229785
54	0x8d	0.021678783
55	0x55	-0.028905045
56	0x85	0.014452523
57	0x3a	-0.05329368
58	0x52	-0.031614892
59	0x85	0.014452523
60	0x91	0.025291914
61	0x41	-0.0469707
62	0x99	0.032518174
63	0x7b	0.0054196957
64	0x72	-0.0027098479
65	0x6a	-0.009936109
66	0xb7	0.059616655
67	0x6c	-0.008129544
68	0x57	-0.02709848
69	0x68	-0.011742675
70	0x6c	-0.008129544
71	0x7d	0.0072262613
72	0x7d	0.0072262613
73	0x6e	-0.0063229785
74	0x35	-0.05781009
75	0x77	0.0018065653
76	0xc0	0.0677462
77	0x74	-0.00090328266
78	0x5c	-0.022582067
79	0x71	-0.0036131307
80	0x82	0.011742675
81	0x8c	0.0207755
82	0x5d	-0.021678783
83	0x99	0.032518174
84	0x88	0.017162371
85	0x7c	0.0063229785
86	0x37	-0.056003526
87	0x64	-0.015355805
88	0x71	-0.0036131307
89	0xa1	0.039744437
90	0x5c	-0.022582067
91	0x76	0.00090328266
92	0x5f	-0.019872218
93	0x85	0.014452523
94	0x65	-0.014452523
95	0x87	0.016259087
96	0x3f	-0.048777264
97	0x92	0.026195196
98	0x69	-0.0108393915
99	0x61	-0.018065654
100	0x56	-0.028001763
101	0x96	0.029808328
102	0x89	0.018065654
103	0x61	-0.018065654
104	0x71	-0.0036131307
105	0x96	0.029808328
106	0x71	-0.0036131307
107	0x7f	0.009032827
108	0x92	0.026195196
109	0x79	0.0036131307
110	0x6c	-0.008129544
111	0x88	0.017162371
112	0x99	0.032518174
113	0xac	0.049680546
114	0x51	-0.032518174
115	0x75	0.0
116	0x7f	0.009032827
117	0x6d	-0.0072262613
118	0x72	-0.0027098479
119	0x8e	0.022582067
120	0x33	-0.059616655
121	0x45	-0.043357566
122	0x78	0.0027098479
123	0x7d	0.0072262613
124	0x65	-0.014452523
125	0x5d	-0.021678783
126	0x65	-0.014452523
127	0x6a	-0.009936109
128	0x65	-0.014452523
129	0x5f	-0.019872218
130	0x49	-0.039744437
131	0x95	0.028905045
132	0x65	-0.014452523
133	0x85	0.014452523
134	0x89	0.018065654
135	0x5d	-0.021678783
136	0x84	0.01354924
137	0x8f	0.02348535
138	0x61	-0.018065654
139	0x81	0.0108393915
140	0x86	0.015355805
141	0x8d	0.021678783
142	0x79	0.0036131307
143	0x63	-0.016259087
144	0x7c	0.0063229785
145	0xa2	0.04064772
146	0x92	0.026195196
147	0x83	0.012645957
148	0x69	-0.0108393915
149	0x62	-0.017162371
150	0x6e	-0.0063229785
151	0x50	-0.033421457
152	0x89	0.018065654
153	0x6e	-0.0063229785
154	0x7e	0.008129544
155	0x8c	0.0207755
156	0x98	0.031614892
157	0x6e	-0.0063229785
158	0x73	-0.0018065653
159	0x73	-0.0018065653
160	0x57	-0.02709848
161	0x70	-0.0045164134
162	0x37	-0.056003526
163	0x67	-0.012645957
164	0x9b	0.034324743
165	0x93	0.02709848
166	0x6a	-0.009936109
167	0x90	0.024388632
168	0x7e	0.008129544
169	0x8b	0.019872218
170	0x65	-0.014452523
171	0x56	-0.028001763
172	0x8a	0.018968936
173	0x6c	-0.008129544
174	0x6d	-0.0072262613
175	0x81	0.0108393915
176	0x8d	0.021678783
177	0x9b	0.034324743
178	0x83	0.012645957
179	0x79	0.0036131307
180	0x77	0.0018065653
181	0x73	-0.0018065653
182	0x7d	0.0072262613
183	0x79	0.0036131307
184	0x69	-0.0108393915
185	0x7c	0.0063229785
186	0x9c	0.035228025
187	0x55	-0.028905045
188	0x75	0.0
189	0x6a	-0.009936109
190	0xbc	0.06413307
191	0x63	-0.016259087
192	0x89	0.018065654
193	0x9e	0.03703459
194	0x75	0.0
195	0x85	0.014452523
196	0x4d	-0.036131307
197	0x83	0.012645957
198	0x6c	-0.008129544
199	0x7a	0.0045164134
200	0x67	-0.012645957
201	0xbb	0.063229784
202	0x13	-0.088521704
203	0x77	0.0018065653
204	0x73	-0.0018065653
205	0x84	0.01354924
206	0x64	-0.015355805
207	0x6e	-0.0063229785
208	0x65	-0.014452523
209	0x87	0.016259087
210	0x3b	-0.052390393
211	0xc8	0.07497246
212	0xab	0.048777264
213	0x7d	0.0072262613
214	0x75	0.0
215	0xb0	0.05329368
216	0xa2	0.04064772
217	0x90	0.024388632
218	0x6c	-0.008129544
219	0x78	0.0027098479
220	0x5a	-0.024388632
221	0x59	-0.025291914
222	0xad	0.05058383
223	0x7e	0.008129544
224	0x7a	0.0045164134
225	0xb1	0.05419696
226	0x38	-0.055100244
227	0x8a	0.018968936
228	0x39	-0.05419696
229	0x61	-0.018065654
230	0x61	-0.018065654
231	0x5e	-0.0207755
232	0x7d	0.0072262613
233	0x61	-0.018065654
234	0xaa	0.04787398
235	0x83	0.012645957
236	0x69	-0.0108393915
237	0x95	0.028905045
238	0x67	-0.012645957
239	0x89	0.018065654
240	0x4a	-0.038841154
241	0x78	0.0027098479
242	0x63	-0.016259087
243	0x9c	0.035228025
244	0x7a	0.0045164134
245	0x60	-0.018968936
246	0x88	0.017162371
247	0x87	0.016259087
248	0x7c	0.0063229785
249	0x6e	-0.0063229785
250	0x7c	0.0063229785
251	0x8b	0.019872218
252	0x78	0.0027098479
253	0x9f	0.037937872
254	0x9a	0.033421457
255	0x6e	-0.0063229785

mnas_v4_a_035_1/feature_network/cell_13/op_0/project_0/weights_quant/FakeQuantWithMinMaxVars u1 [64, 1, 1, 384] scale=0.005067842 zero_point=126
0	0x7f	0.005067842
1	0x7b	-0.015203526
2	0xa6	0.20271368
3	0x8c	0.07094979
4	0x66	-0.12162821
5	0x85	0.035474896
6	0x6f	-0.07601763
7	0x45	-0.288867
8	0x7e	0.0
9	0x72	-0.060814105
10	0x9f	0.16723879
11	0x7d	-0.005067842
12	0xa4	0.192578
13	0x8d	0.07601763
14	0x89	0.055746265
15	0x6c	-0.091221154
16	0x84	0.030407052
17	0x7e	0.0
18	0x77	-0.035474896
19	0x72	-0.060814105
20	0x8c	0.07094979
21	0x92	0.10135684
22	0x8e	0.08108547
23	0x8d	0.07601763
24	0x59	-0.18751016
25	0x83	0.02533921
26	0x81	0.015203526
27	0x74	-0.05067842
28	0x6c	-0.091221154
29	0x93	0.10642468
30	0x6e	-0.08108547
31	0xa1	0.17737447
32	0x8d	0.07601763
33	0x3d	-0.32940975
34	0x7b	-0.015203526
35	0x87	0.045610577
36	0x95	0.11656037
37	0x7e	0.0
38	0x7d	-0.005067842
39	0x82	0.020271368
40	0x8f	0.08615331
41	0x61	-0.14696743
42	0x8f	0.08615331
43	0x41	-0.30913836
44	0x56	-0.20271368
45	0x7e	0.0
46	0x82	0.020271368
47	0x89	0.055746265
48	0x8b	0.065881945
49	0x77	-0.035474896
50	0x89	0.055746265
51	0x7e	0.0
52	0x92	0.10135684
53	0x95	0.11656037
54	0x77	-0.035474896
55	0x70	-0.07094979
56	0x72	-0.060814105
57	0x5b	-0.17737447
58	0x71	-0.065881945
59	0x71	-0.065881945
60	0x67	-0.11656037
61	0x9d	0.1571031
62	0x5c	-0.17230663
63	0x91	0.096289
64	0x7b	-0.015203526
65	0x73	-0.055746265
66	0x88	0.05067842
67	0x8a	0.060814105
68	0x84	0.030407052
69	0x61	-0.14696743
70	0x8a	0.060814105
71	0x9b	0.14696743
72	0x52	-0.22298506
73	0x84	0.030407052
74	0x89	0.055746265
75	0x87	0.045610577
76	0x77	-0.035474896
77	0x7b	-0.015203526
78	0x7d	-0.005067842
79	0x89	0.055746265
80	0x86	0.040542737
81	0x70	-0.07094979
82	0x80	0.010135684
83	0x64	-0.13176389
84	0x82	0.020271368
85	0x56	-0.20271368
86	0x81	0.015203526
87	0x76	-0.040542737
88	0x7c	-0.010135684
89	0x84	0.030407052
90	0x7f	0.005067842
91	0x64	-0.13176389
92	0x7a	-0.020271368
93	0x6c	-0.091221154
94	0x82	0.020271368
95	0x88	0.05067842
96	0x84	0.030407052
97	0x86	0.040542737
98	0x33	-0.38008815
99	0x9b	0.14696743
100	0x7e	0.0
101	0x88	0.05067842
102	0x6f	-0.07601763
103	0x76	-0.040542737
104	0x83	0.02533921
105	0x63	-0.13683173
106	0x9c	0.15203527
107	0x71	-0.065881945
108	0x7c	-0.010135684
109	0x8b	0.065881945
110	0x7e	0.0
111	0x8e	0.08108547
112	0x77	-0.035474896
113	0xa3	0.18751016
114	0x6f	-0.07601763
115	0x7b	-0.015203526
116	0x71	-0.065881945
117	0x79	-0.02533921
118	0x93	0.10642468
119	0x99	0.13683173
120	0x76	-0.040542737
121	0x61	-0.14696743
122	0x8e	0.08108547
123	0x5e	-0.16217095
124	0x7b	-0.015203526
125	0x7a	-0.020271368
126	0x6d	-0.08615331
127	0xa3	0.18751016
128	0x73	-0.055746265
129	0x89	0.055746265
130	0x63	-0.13683173
131	0x60	-0.15203527
132	0x64	-0.13176389
133	0x65	-0.12669605
134	0xa8	0.21284936
135	0x65	-0.12669605
136	0x7b	-0.015203526
137	0x83	0.02533921
138	0x73	-0.055746265
139	0xc5	0.3598168
140	0x7b	-0.015203526
141	0x7c	-0.010135684
142	0x93	0.10642468
143	0x84	0.030407052
144	0xc8	0.37502033
145	0x89	0.055746265
146	0x65	-0.12669605
147	0x79	-0.02533921
148	0xa4	0.192578
149	0x7c	-0.010135684
150	0x65	-0.12669605
151	0xd5	0.44090226
152	0x7b	-0.015203526
153	0x7e	0.0
154	0x98	0.13176389
155	0x97	0.12669605
156	0x97	0.12669605
157	0x81	0.015203526
158	0x69	-0.10642468
159	0x63	-0.13683173
160	0x99	0.13683173
161	0x84	0.030407052
162	0x87	0.045610577
163	0x81	0.015203526
164	0x65	-0.12669605
165	0x67	-0.11656037
166	0x99	0.13683173
167	0x85	0.035474896
168	0x4d	-0.24832426
169	0x51	-0.2280529
170	0x4c	-0.2533921
171	0xa1	0.17737447
172	0x9f	0.16723879
173	0x4c	-0.2533921
174	0x81	0.015203526
175	0x91	0.096289
176	0x9b	0.14696743
177	0x82	0.020271368
178	0x84	0.030407052
179	0x87	0.045610577
180	0x86	0.040542737
181	0x86	0.040542737
182	0xab	0.2280529
183	0x6c	-0.091221154
184	0x8e	0.08108547
185	0x80	0.010135684
186	0x69	-0.10642468
187	0x42	-0.30407053
188	0x93	0.10642468
189	0x81	0.015203526
190	0x59	-0.18751016
191	0x6a	-0.10135684
192	0x79	-0.02533921
193	0x97	0.12669605
194	0x57	-0.19764584
195	0x6c	-0.091221154
196	0x59	-0.18751016
197	0x7f	0.005067842
198	0x8c	0.07094979
199	0x9a	0.14189959
200	0x7b	-0.015203526
201	0x79	-0.02533921
202	0x3b	-0.33954543
203	0x75	-0.045610577
204	0xa2	0.18244231
205	0x90	0.091221154
206	0x9e	0.16217095
207	0x79	-0.02533921
208	0x7f	0.005067842
209	0x70	-0.07094979
210	0x8c	0.07094979
211	0x6f	-0.07601763
212	0x73	-0.055746265
213	0x8b	0.065881945
214	0x66	-0.12162821
215	0x8f	0.08615331
216	0x8f	0.08615331
217	0x8d	0.07601763
218	0x91	0.096289
219	0x81	0.015203526
220	0x67	-0.11656037
221	0x8f	0.08615331
222	0x6e	-0.08108547
223	0x7d	-0.005067842
224	0x70	-0.07094979
225	0x70	-0.07094979
226	0x89	0.055746265
227	0x80	0.010135684
228	0x7c	-0.010135684
229	0x75	-0.045610577
230	0x6d	-0.08615331
231	0x8d	0.07601763
232	0x64	-0.13176389
233	0x55	-0.20778152
234	0x90	0.091221154
235	0x9a	0.14189959
236	0x6c	-0.091221154
237	0x6b	-0.096289
238	0x9d	0.1571031
239	0x75	-0.045610577
240	0x64	-0.13176389
241	0x61	-0.14696743
242	0x51	-0.2280529
243	0x6c	-0.091221154
244	0x9e	0.16217095
245	0x70	-0.07094979
246	0x61	-0.14696743
247	0xa6	0.20271368
248	0x80	0.010135684
249	0x82	0.020271368
250	0x7f	0.005067842
251	0x97	0.12669605
252	0x81	0.015203526
253	0x6b	-0.096289
254	0x5e	-0.16217095
255	0x42	-0.30407053

mnas_v4_a_035_1/feature_network/cell_14/op_0/depthwise_0/weights_quant/FakeQuantWithMinMaxVars u1 [1, 5, 5, 384] scale=1.6383184 zero_point=142
0	0xb8	68.80937
1	0x8e	0.0
2	0x8e	0.0
3	0x8e	0.0
4	0x8e	0.0
5	0x8e	0.0
6	0x8e	0.0
7	0x8e	0.0
8	0x8e	0.0
9	0x8e	0.0
10	0x8e	0.0
11	0x8e	0.0
12	0x8e	0.0
13	0x8e	0.0
14	0x8e	0.0
15	0x8e	0.0
16	0x8e	0.0
17	0x8e	0.0
18	0x8e	0.0
19	0x8e	0.0
20	0x8e	0.0
21	0x8e	0.0
22	0x8e	0.0
23	0x8f	1.6383184
24	0x8e	0.0
25	0x8e	0.0
26	0x8d	-1.6383184
27	0x8e	0.0
28	0x8e	0.0
29	0x8e	0.0
30	0x8e	0.0
31	0x8e	0.0
32	0x8e	0.0
33	0x8e	0.0
34	0x8e	0.0
35	0x8e	0.0
36	0x8e	0.0
37	0x8e	0.0
38	0x8e	0.0
39	0x8e	0.0
40	0x8e	0.0
41	0x8e	0.0
42	0x8e	0.0
43	0x8e	0.0
44	0x8e	0.0
45	0x8e	0.0
46	0x8e	0.0
47	0x8e	0.0
48	0x8e	0.0
49	0x8e	0.0
50	0x8e	0.0
51	0x8e	0.0
52	0x8e	0.0
53	0x8e	0.0
54	0x8e	0.0
55	0x8e	0.0
56	0x8e	0.0
57	0x8e	0.0
58	0x8d	-1.6383184
59	0x8e	0.0
60	0x8e	0.0
61	0x8e	0.0
62	0x8e	0.0
63	0x8e	0.0
64	0x8e	0.0
65	0x8e	0.0
66	0x8e	0.0
67	0x8e	0.0
68	0x8e	0.0
69	0x8f	1.6383184
70	0x8e	0.0
71	0x8e	0.0
72	0x8e	0.0
73	0x90	3.2766368
74	0x8e	0.0
75	0x8e	0.0
76	0x8e	0.0
77	0x8f	1.6383184
78	0x8e	0.0
79	0x8e	0.0
80	0x8e	0.0
81	0x8e	0.0
82	0x8e	0.0
83	0x8e	0.0
84	0x8e	0.0
85	0x8e	0.0
86	0x8e	0.0
87	0x8e	0.0
88	0x8e	0.0
89	0x8e	0.0
90	0x8e	0.0
91	0x8e	0.0
92	0x8e	0.0
93	0x8e	0.0
94	0x8e	0.0
95	0x8e	0.0
96	0x8e	0.0
97	0x8e	0.0
98	0x8e	0.0
99	0x8e	0.0
100	0x8e	0.0
101	0x8d	-1.6383184
102	0x8e	0.0
103	0x8e	0.0
104	0x8e	0.0
105	0x8e	0.0
106	0x8e	0.0
107	0x8e	0.0
108	0x8e	0.0
109	0x8e	0.0
110	0x8e	0.0
111	0x8e	0.0
112	0x8e	0.0
113	0x8e	0.0
114	0x8e	0.0
115	0x8e	0.0
116	0x8e	0.0
117	0x9a	19.65982
118	0x8e	0.0
119	0x8e	0.0
120	0x8e	0.0
121	0x8e	0.0
122	0x91	4.914955
123	0x8e	0.0
124	0x8e	0.0
125	0x8f	1.6383184
126	0x8e	0.0
127	0x8e	0.0
128	0x8e	0.0
129	0x8e	0.0
130	0x8e	0.0
131	0x8e	0.0
132	0x90	3.2766368
133	0x8e	0.0
134	0x8e	0.0
135	0x8e	0.0
136	0x8e	0.0
137	0x8e	0.0
138	0x8e	0.0
139	0x8e	0.0
140	0x8e	0.0
141	0x8e	0.0
142	0x8e	0.0
143	0x8e	0.0
144	0x8e	0.0
145	0x8e	0.0
146	0x8e	0.0
147	0x8e	0.0
148	0x8e	0.0
149	0x8e	0.0
150	0x8e	0.0
151	0x8e	0.0
152	0x8e	0.0
153	0x8e	0.0
154	0x8e	0.0
155	0x8e	0.0
156	0x8e	0.0
157	0x8e	0.0
158	0x8e	0.0
159	0x8e	0.0
160	0x8e	0.0
161	0x8e	0.0
162	0x8e	0.0
163	0x8d	-1.6383184
164	0x8e	0.0
165	0x8e	0.0
166	0x8f	1.6383184
167	0x8f	1.6383184
168	0x8e	0.0
169	0x8e	0.0
170	0x8e	0.0
171	0x8e	0.0
172	0x8f	1.6383184
173	0x8e	0.0
174	0x8e	0.0
175	0x8e	0.0
176	0x8e	0.0
177	0x8e	0.0
178	0x8e	0.0
179	0x8e	0.0
180	0x8e	0.0
181	0x8e	0.0
182	0x8e	0.0
183	0x8e	0.0
184	0x8e	0.0
185	0x8f	1.6383184
186	0x8e	0.0
187	0x8e	0.0
188	0x8e	0.0
189	0x8e	0.0
190	0x8f	1.6383184
191	0x8e	0.0
192	0x8e	0.0
193	0x8e	0.0
194	0x8f	1.6383184
195	0x91	4.914955
196	0x8e	0.0
197	0x8f	1.6383184
198	0x8e	0.0
199	0x8e	0.0
200	0x8e	0.0
201	0x8e	0.0
202	0x8e	0.0
203	0x8e	0.0
204	0x8e	0.0
205	0x8e	0.0
206	0x8e	0.0
207	0x8e	0.0
208	0x8e	0.0
209	0x8e	0.0
210	0x8e	0.0
211	0x8e	0.0
212	0x8e	0.0
213	0x8e	0.0
214	0x8e	0.0
215	0x8e	0.0
216	0x8e	0.0
217	0x8e	0.0
218	0x8e	0.0
219	0x8e	0.0
220	0x8f	1.6383184
221	0x8e	0.0
222	0x7a	-32.76637
223	0x8e	0.0
224	0x8e	0.0
225	0x8e	0.0
226	0x8e	0.0
227	0x8e	0.0
228	0x8e	0.0
229	0x8e	0.0
230	0x8e	0.0
231	0x8e	0.0
232	0x8e	0.0
233	0x8e	0.0
234	0x8e	0.0
235	0x8e	0.0
236	0x8e	0.0
237	0x8e	0.0
238	0x8f	1.6383184
239	0x8e	0.0
240	0x8e	0.0
241	0x8e	0.0
242	0x8e	0.0
243	0x8e	0.0
244	0x8e	0.0
245	0x8e	0.0
246	0x8e	0.0
247	0x8e	0.0
248	0x8e	0.0
249	0x8e	0.0
250	0x8e	0.0
251	0x8e	0.0
252	0x8e	0.0
253	0x8e	0.0
254	0x8e	0.0
255	0x8f	1.6383184

mnas_v4_a_035_1/feature_network/cell_14/op_0/expand_0/weights_quant/FakeQuantWithMinMaxVars u1 [384, 1, 1, 64] scale=0.0012001059 zero_point=151
0	0xa2	0.013201165
1	0x97	0.0
2	0x94	-0.0036003175
3	0x9d	0.007200635
4	0x97	0.0
5	0x8f	-0.009600847
6	0x8f	-0.009600847
7	0x95	-0.0024002118
8	0x99	0.0024002118
9	0x9d	0.007200635
10	0x91	-0.007200635
11	0x90	-0.008400741
12	0x99	0.0024002118
13	0x9a	0.0036003175
14	0x93	-0.0048004235
15	0x92	-0.0060005295
16	0x94	-0.0036003175
17	0x98	0.0012001059
18	0x8b	-0.01440127
19	0x98	0.0012001059
20	0x99	0.0024002118
21	0x9e	0.008400741
22	0x98	0.0012001059
23	0x98	0.0012001059
24	0x98	0.0012001059
25	0x98	0.0012001059
26	0x95	-0.0024002118
27	0x97	0.0
28	0x96	-0.0012001059
29	0x95	-0.0024002118
30	0x94	-0.0036003175
31	0x8d	-0.012001059
32	0x98	0.0012001059
33	0x92	-0.0060005295
34	0x94	-0.0036003175
35	0x95	-0.0024002118
36	0x9b	0.0048004235
37	0x9d	0.007200635
38	0x95	-0.0024002118
39	0x95	-0.0024002118
40	0x97	0.0
41	0x95	-0.0024002118
42	0x96	-0.0012001059
43	0x97	0.0
44	0x96	-0.0012001059
45	0x95	-0.0024002118
46	0x92	-0.0060005295
47	0x9f	0.009600847
48	0x9c	0.0060005295
49	0x97	0.0
50	0x8f	-0.009600847
51	0x96	-0.0012001059
52	0x96	-0.0012001059
53	0x9d	0.007200635
54	0x97	0.0
55	0x9c	0.0060005295
56	0x91	-0.007200635
57	0x94	-0.0036003175
58	0x9b	0.0048004235
59	0x94	-0.0036003175
60	0x94	-0.0036003175
61	0x96	-0.0012001059
62	0xa3	0.01440127
63	0x98	0.0012001059
64	0x78	-0.037203282
65	0x98	0.0012001059
66	0x90	-0.008400741
67	0x9f	0.009600847
68	0x99	0.0024002118
69	0xad	0.02640233
70	0xa3	0.01440127
71	0x8f	-0.009600847
72	0x91	-0.007200635
73	0x8c	-0.013201165
74	0x99	0.0024002118
75	0xa7	0.019201694
76	0x88	-0.018001588
77	0x99	0.0024002118
78	0x9f	0.009600847
79	0x8a	-0.015601376
80	0xa7	0.019201694
81	0x9f	0.009600847
82	0xb3	0.033602964
83	0xb0	0.030002646
84	0x8d	-0.012001059
85	0x91	-0.007200635
86	0x98	0.0012001059
87	0x95	-0.0024002118
88	0x95	-0.0024002118
89	0xc0	0.049204342
90	0x92	-0.0060005295
91	0x9c	0.0060005295
92	0xaf	0.02880254
93	0xa0	0.010800953
94	0x8f	-0.009600847
95	0x87	-0.019201694
96	0xa1	0.012001059
97	0x89	-0.016801482
98	0xae	0.027602436
99	0xb4	0.03480307
100	0x8b	-0.01440127
101	0x89	-0.016801482
102	0x93	-0.0048004235
103	0xa1	0.012001059
104	0x93	-0.0048004235
105	0x83	-0.024002118
106	0x92	-0.0060005295
107	0x9e	0.008400741
108	0xb0	0.030002646
109	0x9e	0.008400741
110	0xbc	0.044403918
111	0x9b	0.0048004235
112	0x99	0.0024002118
113	0x7e	-0.030002646
114	0x83	-0.024002118
115	0x91	-0.007200635
116	0xa8	0.0204018
117	0x8c	-0.013201165
118	0x86	-0.0204018
119	0x8a	-0.015601376
120	0x98	0.0012001059
121	0xa1	0.012001059
122	0x8f	-0.009600847
123	0xa0	0.010800953
124	0x9a	0.0036003175
125	0x91	-0.007200635
126	0x82	-0.025202224
127	0x96	-0.0012001059
128	0x8b	-0.01440127
129	0xa7	0.019201694
130	0x9c	0.0060005295
131	0x8f	-0.009600847
132	0xad	0.02640233
133	0x97	0.0
134	0x98	0.0012001059
135	0xb6	0.037203282
136	0xb0	0.030002646
137	0xac	0.025202224
138	0xae	0.027602436
139	0x81	-0.02640233
140	0xb0	0.030002646
141	0x80	-0.027602436
142	0x87	-0.019201694
143	0x91	-0.007200635
144	0x90	-0.008400741
145	0x8f	-0.009600847
146	0x88	-0.018001588
147	0x92	-0.0060005295
148	0x89	-0.016801482
149	0x8d	-0.012001059
150	0x92	-0.0060005295
151	0x97	0.0
152	0x89	-0.016801482
153	0x73	-0.043203812
154	0xa2	0.013201165
155	0x85	-0.021601906
156	0x8b	-0.01440127
157	0xa3	0.01440127
158	0x92	-0.0060005295
159	0xa9	0.021601906
160	0x87	-0.019201694
161	0x8d	-0.012001059
162	0x94	-0.0036003175
163	0x95	-0.0024002118
164	0x81	-0.02640233
165	0x9a	0.0036003175
166	0xa7	0.019201694
167	0x8f	-0.009600847
168	0x8c	-0.013201165
169	0xa5	0.016801482
170	0x91	-0.007200635
171	0x9a	0.0036003175
172	0x8b	-0.01440127
173	0xa5	0.016801482
174	0x8a	-0.015601376
175	0x97	0.0
176	0xa2	0.013201165
177	0x97	0.0
178	0xb2	0.03240286
179	0x7f	-0.02880254
180	0x8c	-0.013201165
181	0x7e	-0.030002646
182	0x92	-0.0060005295
183	0xa6	0.018001588
184	0xa3	0.01440127
185	0x77	-0.038403388
186	0xa4	0.015601376
187	0x90	-0.008400741
188	0x9b	0.0048004235
189	0x7d	-0.031202752
190	0x9f	0.009600847
191	0xa1	0.012001059
192	0x94	-0.0036003175
193	0x9d	0.007200635
194	0x91	-0.007200635
195	0x90	-0.008400741
196	0xaf	0.02880254
197	0xa5	0.016801482
198	0xa0	0.010800953
199	0x9a	0.0036003175
200	0x8f	-0.009600847
201	0x93	-0.0048004235
202	0x99	0.0024002118
203	0xab	0.024002118
204	0x90	-0.008400741
205	0xa2	0.013201165
206	0x87	-0.019201694
207	0xa2	0.013201165
208	0x87	-0.019201694
209	0xab	0.024002118
210	0x95	-0.0024002118
211	0xa0	0.010800953
212	0x8f	-0.009600847
213	0x88	-0.018001588
214	0x90	-0.008400741
215	0xb5	0.036003176
216	0x7d	-0.031202752
217	0xc5	0.055204872
218	0x9a	0.0036003175
219	0xae	0.027602436
220	0x99	0.0024002118
221	0x93	-0.0048004235
222	0x9b	0.0048004235
223	0x93	-0.0048004235
224	0x9a	0.0036003175
225	0x88	-0.018001588
226	0xa8	0.0204018
227	0x9a	0.0036003175
228	0x96	-0.0012001059
229	0x7f	-0.02880254
230	0x95	-0.0024002118
231	0x9c	0.0060005295
232	0x93	-0.0048004235
233	0x7d	-0.031202752
234	0x9a	0.0036003175
235	0xa8	0.0204018
236	0x95	-0.0024002118
237	0xa0	0.010800953
238	0x9b	0.0048004235
239	0x99	0.0024002118
240	0x7e	-0.030002646
241	0x88	-0.018001588
242	0x8e	-0.010800953
243	0x97	0.0
244	0xa5	0.016801482
245	0x93	-0.0048004235
246	0x96	-0.0012001059
247	0x7d	-0.031202752
248	0x9e	0.008400741
249	0x9b	0.0048004235
250	0x97	0.0
251	0xa9	0.021601906
252	0xb0	0.030002646
253	0x9e	0.008400741
254	0x6c	-0.051604554
255	0x90	-0.008400741

mnas_v4_a_035_1/feature_network/cell_14/op_0/project_0/weights_quant/FakeQuantWithMinMaxVars u1 [64, 1, 1, 384] scale=0.00519788 zero_point=124
0	0x7e	0.01039576
1	0x80	0.02079152
2	0x81	0.025989398
3	0x94	0.12474912
4	0x84	0.04158304
5	0x7f	0.01559364
6	0x76	-0.03118728
7	0x6f	-0.06757244
8	0x7b	-0.00519788
9	0x67	-0.109155476
10	0x93	0.119551234
11	0x6f	-0.06757244
12	0x97	0.14034276
13	0x7e	0.01039576
14	0x6e	-0.07277032
15	0x8a	0.07277032
16	0x88	0.06237456
17	0x77	-0.025989398
18	0x59	-0.18192579
19	0x58	-0.18712367
20	0x8a	0.07277032
21	0x85	0.046780918
22	0x5a	-0.17672792
23	0x7b	-0.00519788
24	0x84	0.04158304
25	0x6e	-0.07277032
26	0x84	0.04158304
27	0x7e	0.01039576
28	0x89	0.06757244
29	0x78	-0.02079152
30	0x5a	-0.17672792
31	0x82	0.03118728
32	0x76	-0.03118728
33	0x85	0.046780918
34	0x81	0.025989398
35	0x7e	0.01039576
36	0x89	0.06757244
37	0x9a	0.15593639
38	0x89	0.06757244
39	0x79	-0.01559364
40	0x87	0.05717668
41	0x89	0.06757244
42	0x7b	-0.00519788
43	0x7f	0.01559364
44	0x6f	-0.06757244
45	0x8c	0.08316608
46	0x80	0.02079152
47	0x7a	-0.01039576
48	0x5f	-0.15073852
49	0x8d	0.08836396
50	0x82	0.03118728
51	0x7f	0.01559364
52	0x48	-0.27028975
53	0x7f	0.01559364
54	0x6d	-0.077968195
55	0x94	0.12474912
56	0x75	-0.03638516
57	0x52	-0.21831095
58	0x64	-0.12474912
59	0x8b	0.077968195
60	0x86	0.051978797
61	0x95	0.12994699
62	0x7d	0.00519788
63	0x58	-0.18712367
64	0x6d	-0.077968195
65	0x8f	0.09875972
66	0x8c	0.08316608
67	0x65	-0.119551234
68	0x97	0.14034276
69	0x9d	0.17153004
70	0x83	0.03638516
71	0x6b	-0.08836396
72	0x86	0.051978797
73	0x85	0.046780918
74	0x75	-0.03638516
75	0x75	-0.03638516
76	0x77	-0.025989398
77	0x74	-0.04158304
78	0x87	0.05717668
79	0x92	0.11435336
80	0x9c	0.16633216
81	0x89	0.06757244
82	0x87	0.05717668
83	0xa0	0.18712367
84	0x95	0.12994699
85	0x7c	0.0
86	0x6d	-0.077968195
87	0x8c	0.08316608
88	0x7a	-0.01039576
89	0x84	0.04158304
90	0x85	0.046780918
91	0x7e	0.01039576
92	0x8f	0.09875972
93	0x6f	-0.06757244
94	0x60	-0.14554064
95	0x75	-0.03638516
96	0x5c	-0.16633216
97	0x8a	0.07277032
98	0xa5	0.21311307
99	0x7b	-0.00519788
100	0x86	0.051978797
101	0x71	-0.05717668
102	0x7d	0.00519788
103	0x79	-0.01559364
104	0x7c	0.0
105	0x89	0.06757244
106	0x83	0.03638516
107	0x77	-0.025989398
108	0x85	0.046780918
109	0x8a	0.07277032
110	0x7f	0.01559364
111	0x8b	0.077968195
112	0x95	0.12994699
113	0x85	0.046780918
114	0x68	-0.10395759
115	0x80	0.02079152
116	0x67	-0.109155476
117	0x67	-0.109155476
118	0x79	-0.01559364
119	0x6b	-0.08836396
120	0x79	-0.01559364
121	0x79	-0.01559364
122	0x70	-0.06237456
123	0x8c	0.08316608
124	0x8b	0.077968195
125	0x80	0.02079152
126	0x65	-0.119551234
127	0x80	0.02079152
128	0x79	-0.01559364
129	0x98	0.14554064
130	0x74	-0.04158304
131	0x75	-0.03638516
132	0x8b	0.077968195
133	0x84	0.04158304
134	0x74	-0.04158304
135	0x77	-0.025989398
136	0x6f	-0.06757244
137	0x89	0.06757244
138	0x6a	-0.093561836
139	0x7f	0.01559364
140	0x81	0.025989398
141	0x7b	-0.00519788
142	0x91	0.109155476
143	0x78	-0.02079152
144	0x7e	0.01039576
145	0x74	-0.04158304
146	0x80	0.02079152
147	0x7d	0.00519788
148	0x97	0.14034276
149	0x59	-0.18192579
150	0x74	-0.04158304
151	0x8d	0.08836396
152	0x97	0.14034276
153	0x75	-0.03638516
154	0x6a	-0.093561836
155	0x91	0.109155476
156	0x84	0.04158304
157	0x75	-0.03638516
158	0x7a	-0.01039576
159	0x6b	-0.08836396
160	0x8c	0.08316608
161	0x75	-0.03638516
162	0xa6	0.21831095
163	0x66	-0.11435336
164	0x85	0.046780918
165	0x5b	-0.17153004
166	0xbc	0.3326643
167	0x78	-0.02079152
168	0x77	-0.025989398
169	0x8b	0.077968195
170	0x7a	-0.01039576
171	0x88	0.06237456
172	0xad	0.2546961
173	0x86	0.051978797
174	0x71	-0.05717668
175	0x72	-0.051978797
176	0x73	-0.046780918
177	0x5f	-0.15073852
178	0x91	0.109155476
179	0x7a	-0.01039576
180	0x6d	-0.077968195
181	0x6f	-0.06757244
182	0x71	-0.05717668
183	0x7c	0.0
184	0x80	0.02079152
185	0x78	-0.02079152
186	0x83	0.03638516
187	0x7f	0.01559364
188	0x81	0.025989398
189	0x72	-0.051978797
190	0x99	0.15073852
191	0xa0	0.18712367
192	0x7f	0.01559364
193	0x72	-0.051978797
194	0x7c	0.0
195	0x7f	0.01559364
196	0x87	0.05717668
197	0x68	-0.10395759
198	0x6f	-0.06757244
199	0x7a	-0.01039576
200	0x83	0.03638516
201	0x9b	0.16113427
202	0x81	0.025989398
203	0x73	-0.046780918
204	0x54	-0.20791519
205	0x75	-0.03638516
206	0xa7	0.22350883
207	0x7a	-0.01039576
208	0x7c	0.0
209	0x76	-0.03118728
210	0x6a	-0.093561836
211	0x7d	0.00519788
212	0x70	-0.06237456
213	0x84	0.04158304
214	0x7f	0.01559364
215	0x94	0.12474912
216	0x9c	0.16633216
217	0x8c	0.08316608
218	0x8d	0.08836396
219	0x82	0.03118728
220	0x75	-0.03638516
221	0x7e	0.01039576
222	0x8b	0.077968195
223	0x88	0.06237456
224	0x64	-0.12474912
225	0x8f	0.09875972
226	0x7b	-0.00519788
227	0x76	-0.03118728
228	0x93	0.119551234
229	0xb0	0.27028975
230	0x7d	0.00519788
231	0x5e	-0.15593639
232	0x69	-0.09875972
233	0x7f	0.01559364
234	0x7a	-0.01039576
235	0x8a	0.07277032
236	0x76	-0.03118728
237	0x9f	0.18192579
238	0x7e	0.01039576
239	0x82	0.03118728
240	0x6a	-0.093561836
241	0x84	0.04158304
242	0x8c	0.08316608
243	0x60	-0.14554064
244	0x71	-0.05717668
245	0x8e	0.093561836
246	0x80	0.02079152
247	0x96	0.13514487
248	0x6c	-0.08316608
249	0x7b	-0.00519788
250	0x76	-0.03118728
251	0x74	-0.04158304
252	0x74	-0.04158304
253	0x94	0.12474912
254	0x65	-0.119551234
255	0x77	-0.025989398

mnas_v4_a_035_1/feature_network/cell_15/op_0/depthwise_0/weights_quant/FakeQuantWithMinMaxVars u1 [1, 5, 5, 384] scale=0.4486633 zero_point=101
0	0x65	0.0
1	0x65	0.0
2	0x65	0.0
3	0x65	0.0
4	0x65	0.0
5	0x64	-0.4486633
6	0x65	0.0
7	0x65	0.0
8	0x65	0.0
9	0x65	0.0
10	0x66	0.4486633
11	0x65	0.0
12	0x66	0.4486633
13	0x65	0.0
14	0x65	0.0
15	0x64	-0.4486633
16	0x65	0.0
17	0x65	0.0
18	0x66	0.4486633
19	0x65	0.0
20	0x65	0.0
21	0x66	0.4486633
22	0x65	0.0
23	0x66	0.4486633
24	0x65	0.0
25	0x64	-0.4486633
26	0x62	-1.34599
27	0x64	-0.4486633
28	0x65	0.0
29	0x66	0.4486633
30	0x65	0.0
31	0x67	0.8973266
32	0x65	0.0
33	0x65	0.0
34	0x64	-0.4486633
35	0x65	0.0
36	0x65	0.0
37	0x65	0.0
38	0x65	0.0
39	0x65	0.0
40	0x66	0.4486633
41	0x65	0.0
42	0x66	0.4486633
43	0x65	0.0
44	0x64	-0.4486633
45	0x65	0.0
46	0x65	0.0
47	0x66	0.4486633
48	0x65	0.0
49	0x65	0.0
50	0x65	0.0
51	0x65	0.0
52	0x48	-13.011235
53	0x64	-0.4486633
54	0x61	-1.7946532
55	0x65	0.0
56	0x66	0.4486633
57	0x64	-0.4486633
58	0x65	0.0
59	0x66	0.4486633
60	0x65	0.0
61	0x66	0.4486633
62	0x66	0.4486633
63	0x64	-0.4486633
64	0x66	0.4486633
65	0x65	0.0
66	0x65	0.0
67	0x66	0.4486633
68	0x65	0.0
69	0x65	0.0
70	0x65	0.0
71	0x64	-0.4486633
72	0x65	0.0
73	0x65	0.0
74	0x61	-1.7946532
75	0x65	0.0
76	0x66	0.4486633
77	0x65	0.0
78	0x67	0.8973266
79	0x64	-0.4486633
80	0x65	0.0
81	0x65	0.0
82	0x65	0.0
83	0x65	0.0
84	0x65	0.0
85	0x65	0.0
86	0x65	0.0
87	0x65	0.0
88	0x64	-0.4486633
89	0x64	-0.4486633
90	0x65	0.0
91	0x65	0.0
92	0x65	0.0
93	0x65	0.0
94	0x65	0.0
95	0x66	0.4486633
96	0x65	0.0
97	0x65	0.0
98	0x65	0.0
99	0x65	0.0
100	0x63	-0.8973266
101	0x65	0.0
102	0x64	-0.4486633
103	0x66	0.4486633
104	0x65	0.0
105	0x66	0.4486633
106	0x66	0.4486633
107	0x65	0.0
108	0x66	0.4486633
109	0x65	0.0
110	0x66	0.4486633
111	0x64	-0.4486633
112	0x66	0.4486633
113	0x65	0.0
114	0x65	0.0
115	0x64	-0.4486633
116	0x66	0.4486633
117	0x65	0.0
118	0x65	0.0
119	0x65	0.0
120	0x65	0.0
121	0x65	0.0
122	0x63	-0.8973266
123	0x66	0.4486633
124	0x65	0.0
125	0x65	0.0
126	0x65	0.0
127	0x65	0.0
128	0x65	0.0
129	0x65	0.0
130	0x65	0.0
131	0x66	0.4486633
132	0x65	0.0
133	0x67	0.8973266
134	0x65	0.0
135	0x6d	3.5893064
136	0x65	0.0
137	0x65	0.0
138	0x65	0.0
139	0x64	-0.4486633
140	0x65	0.0
141	0x66	0.4486633
142	0x65	0.0
143	0x65	0.0
144	0x65	0.0
145	0x65	0.0
146	0x65	0.0
147	0x65	0.0
148	0x64	-0.4486633
149	0x65	0.0
150	0x64	-0.4486633
151	0x66	0.4486633
152	0x65	0.0
153	0x66	0.4486633
154	0x65	0.0
155	0x65	0.0
156	0x66	0.4486633
157	0x65	0.0
158	0x66	0.4486633
159	0x66	0.4486633
160	0x67	0.8973266
161	0x66	0.4486633
162	0x65	0.0
163	0x65	0.0
164	0x64	-0.4486633
165	0x65	0.0
166	0x65	0.0
167	0x65	0.0
168	0x64	-0.4486633
169	0x64	-0.4486633
170	0x65	0.0
171	0x66	0.4486633
172	0x65	0.0
173	0x67	0.8973266
174	0x65	0.0
175	0x65	0.0
176	0x65	0.0
177	0x65	0.0
178	0x65	0.0
179	0x65	0.0
180	0x66	0.4486633
181	0x65	0.0
182	0x64	-0.4486633
183	0x65	0.0
184	0x64	-0.4486633
185	0x66	0.4486633
186	0x64	-0.4486633
187	0x65	0.0
188	0x65	0.0
189	0x65	0.0
190	0x66	0.4486633
191	0x65	0.0
192	0x65	0.0
193	0x66	0.4486633
194	0x65	0.0
195	0x65	0.0
196	0x65	0.0
197	0x65	0.0
198	0x64	-0.4486633
199	0x65	0.0
200	0x65	0.0
201	0x67	0.8973266
202	0x65	0.0
203	0x65	0.0
204	0x65	0.0
205	0x65	0.0
206	0x65	0.0
207	0x65	0.0
208	0x66	0.4486633
209	0x66	0.4486633
210	0x63	-0.8973266
211	0x65	0.0
212	0x65	0.0
213	0x64	-0.4486633
214	0x64	-0.4486633
215	0x5b	-4.486633
216	0x65	0.0
217	0x66	0.4486633
218	0x65	0.0
219	0x65	0.0
220	0x64	-0.4486633
221	0x65	0.0
222	0x65	0.0
223	0x65	0.0
224	0x65	0.0
225	0x65	0.0
226	0x65	0.0
227	0x65	0.0
228	0x65	0.0
229	0x64	-0.4486633
230	0x64	-0.4486633
231	0x65	0.0
232	0x66	0.4486633
233	0x65	0.0
234	0x65	0.0
235	0x65	0.0
236	0x65	0.0
237	0x65	0.0
238	0x65	0.0
239	0x65	0.0
240	0x66	0.4486633
241	0x65	0.0
242	0x65	0.0
243	0x65	0.0
244	0x65	0.0
245	0x65	0.0
246	0x65	0.0
247	0x65	0.0
248	0x65	0.0
249	0x64	-0.4486633
250	0x65	0.0
251	0x66	0.4486633
252	0x65	0.0
253	0x66	0.4486633
254	0x65	0.0
255	0x65	0.0
